models/original_tasks_model_512_1_2.pt (torch, 608594 bytes, 20 tensors)

input_net.1.weight f4 [128, 4]
00000000: 159c c4be 53f3 f03e 0548 f4be 3075 793e
00000010: 1db4 813e 371a bd3e a118 a53e 966d af3e
00000020: 6361 d93e bc2a f4be 1bcc e53e e81f 3ebe
00000030: e4f3 193e 2aa3 d9be 30f6 e0be 18cc b53e
00000040: ed1c fabe 29f9 5a3e 6bdd bd3e c8e2 b03e
00000050: e6fc 92be d37d de3c c752 9d3e f219 f4be
00000060: 03bb 44bd b9b9 d6be 2dea d6be 1039 77be
00000070: c165 79be b1f7 073f cf80 27bc 789e 3fbe
00000080: f699 40bb a996 713e a823 fb3e c065 393d
00000090: 8b58 c23e d845 093d 0b62 9a3e 28fe e4be
000000a0: be94 db3e 9ef7 42be ed48 29be 7ee9 abbe
000000b0: fcf2 3e3e f767 ed3e 5e81 943e 3aca 863e
000000c0: 04a7 6ebe d31c c8be d8d7 b4bc a415 1ebe
000000d0: 945e 833e a839 163e 9312 02bd d6b7 babe
000000e0: 5273 663e d77c 4bbe 4cb3 8f3d 8400 02be
000000f0: 362f e23e eedb 8c3e 1a7b 89be 9851 cb3d
00000100: 4f92 52be fd60 9dbd b2fb af3e 70f4 03bd
00000110: f837 053d a375 cd3e b9d0 0f3e a003 723e
00000120: 0f87 96be 6fac e93e 2dbf 553e c61c 94be
00000130: b241 ecbe c0ec 9fbd d7b4 e2be 600d a23d
00000140: fd8a c53e 38e8 bfbe 9b5a efbe 5676 a03e
00000150: b3c0 9ebe d3a9 433d f255 09be 0cdc 873e
00000160: 53b8 ca3e 2d4b bb3e 80b7 f1be ecd7 5cbe
00000170: 3d03 f73e 9da4 b33e 31f2 75be e082 dfbe
00000180: 23be b13e a84b 27be 1993 b33e d4d8 77be
00000190: 28d0 e83e f6bf 743e e1a5 eabd c43b 11be
000001a0: 5d39 003f 8340 423e 060a afbe a45a a13e
000001b0: 7d78 bdbe cfdb e03c 7cbf e6bd 620b f5be
000001c0: 20a9 d43e 3d9c ca3e ee9d a53e 50e3 c8bd
000001d0: f052 1bbe c5c8 3cbe cc25 8b3e 041e da3e
000001e0: 918e d53e 6226 13be 9ba3 293e 60e3 a0bd
000001f0: 7857 1c3e ab30 a73d 7a68 cabe 52ba c93e
00000200: b4bc 8fbe 53cb 0fbd 5a6c a2be 4008 2ebe
00000210: 74a1 c13e 58d3 ba3e c45c c13e b87a debe
00000220: 1f1e e33e e8fe aabe 751b a7bc 58c8 cb3e
00000230: c546 a03d 2b35 2b3e bc15 b23d c8e6 d2be
00000240: 9c49 68be edb3 ffbd 012a 80bc 0086 73bb
00000250: d8d6 b1be 1d9b ae3e dbac 073d 7c9b 4b3e
00000260: 3771 133e 69f5 fbbe a85e 643d aa05 f1be
00000270: 3e16 dd3d f14e e53e d283 e03d 103c 683e
00000280: 4915 473e ae6d aabd 456e 263d 508f 283d
00000290: 912b c33e ef9e 683e 92f4 e83e 9422 8dbe
000002a0: 6fc0 98be 55a1 9dbe 0cd6 c53e 1c4b 5bbe
000002b0: cb83 b13e 0604 e3bd 121b d8be b08c 03be
000002c0: 4ca2 3b3c b777 2e3e 5752 ffbe e818 d8be
000002d0: 5f2f 853e 59dc 52bd 6bb8 68bd 3e94 bdbe
000002e0: 075e 923e 76c5 cf3e 9dd7 07be 7888 ee3e
000002f0: d55b f5be 7e1f a8be 94d4 863e 50dc 97be
00000300: 8825 593e 82ac 84be 8fcd c1be 101b a83d
00000310: 22e6 943e 2944 94be 5742 a5bc 48ac e93d
00000320: 27f6 fa3e a3ff c93d 678c 453c 141f 74be
00000330: e089 75bd f1bf 573e f440 d03e 44a3 3cbe
00000340: 4ba3 dc3e 5cb7 b7be 39d1 3c3e 2e84 f2be
00000350: 15ad 013f 356c ab3e 73a6 903e 6c6d 1abe
00000360: 2f39 673e 2576 b9bd 0a9f 483e cca0 a93e
00000370: 0335 df3e fa8a 08bd 9faf 6e3e 842d a1be
00000380: 2829 563e d56d dabc c05f 90bc dc39 bdbe
00000390: 9a5f ae3e fc77 f8be 9644 77be 1225 ef3e
000003a0: 74f7 ef3e 917b 833e 0c54 a9be 4066 f43e
000003b0: c1bd 0fbe 6c54 b3bd 97ac b73e 5030 4fbd
000003c0: 79e1 a6bd 253e 083e ce04 e93e 7a02 bb3e
000003d0: 1e5b b3be 66a4 eb3c a32e a0bd c8bb e83d
000003e0: 0356 683d aa14 4f3e 8f30 90be 80d2 acbd
000003f0: ce65 763d d33a b3be f481 ad3d 78b1 e3be
-0.3840033 0.47060642 -0.47711197 0.2436111 0.25332728 0.36934063 0.32245353 0.34263295
0.42457113 -0.47688854 0.44882283 -0.18566859 0.15034443 -0.42507297 -0.43937826 0.35507274
-0.48850194 0.2138411 0.3708299 0.3454802 -0.2870857 0.027159607 0.30727217 -0.47676045
-0.04802991 -0.4193857 -0.41975537 -0.24142861 -0.24355222 0.5311232 -0.010223581 -0.18712795
-0.0029388643 0.23592629 0.4905064 0.045263052 0.37958178 0.033513874 0.30152926 -0.44725156
0.4288692 -0.19039771 -0.16531725 -0.33576578 0.18647379 0.4636838 0.2900495 0.26326162
-0.23305899 -0.3908449 -0.022075579 -0.15437943 0.25658095 0.14670432 -0.031755995 -0.3646838
0.22504929 -0.19871841 0.0701662 -0.12695509 0.44176644 0.27511543 -0.26851732 0.09927672
-0.20563625 -0.07684515 0.34371716 -0.032215536 0.03252408 0.40128812 0.14044465 0.23634195
-0.29399917 0.4563937 0.20873709 -0.28928202 -0.46143872 -0.07808828 -0.44278595 0.07912707
0.38582602 -0.37481856 -0.46748814 0.31340283 -0.31006393 0.04776938 -0.13411692 0.2653507
0.39593753 0.36580792 -0.47210312 -0.21566743 0.48244658 0.35086527 -0.2401817 -0.43654537
0.34715375 -0.16337454 0.35073164 -0.24203807 0.4547131 0.23901352 -0.1145742 -0.14182955
0.5008753 0.18969922 -0.34187335 0.31514466 -0.37005988 0.027448563 -0.112669915 -0.47860247
0.41535282 0.39572325 0.32347053 -0.098089814 -0.15168357 -0.18435962 0.27177274 0.42601025
0.41710332 -0.1437011 0.16566317 -0.07855868 0.15267742 0.081635796 -0.39532834 0.39399964
-0.28073657 -0.035106014 -0.3172329 -0.16995335 0.3781849 0.36489367 0.37766087 -0.43453002
0.44358918 -0.33397603 -0.020398835 0.39801288 0.07825998 0.167195 0.08695552 -0.41191697
-0.2268433 -0.1248549 -0.015645029 -0.0037158728 -0.34734225 0.34102717 0.033123832 0.19883531
0.14398657 -0.4921067 0.055754334 -0.47074634 0.10795258 0.4478679 0.10962643 0.22679162
0.19441713 -0.08321701 0.040632505 0.0411523 0.38119176 0.22716878 0.45499092 -0.27565444
-0.29834315 -0.3078715 0.38639867 -0.2141537 0.34670863 -0.11084752 -0.42208153 -0.12846637
0.011452269 0.17037855 -0.49867508 -0.42206502 0.26012704 -0.05147967 -0.0568165 -0.37027162
0.28587362 0.40580338 -0.13265844 0.46588492 -0.47921625 -0.32836527 0.2633406 -0.29660273
0.21205723 -0.25912863 -0.3785214 0.08208287 0.29081827 -0.28958252 -0.020173235 0.11409813
0.49015924 0.09863212 0.0120574 -0.2383998 -0.05994594 0.21069314 0.40674555 -0.18421656
0.43093333 -0.3588208 0.18439187 -0.4736647 0.5065473 0.33480993 0.2825199 -0.15080804
0.22580408 -0.090557374 0.19591919 0.3313049 0.43595132 -0.033335663 0.23309182 -0.31480038
0.20914137 -0.0266637 -0.017623782 -0.36958206 0.34057313 -0.4852904 -0.24147257 0.4670797
0.4686848 0.2568021 -0.33071935 0.4773426 -0.14037229 -0.087563366 0.35873863 -0.050583184
-0.08148474 0.13304956 0.45511478 0.36525327 -0.35030454 0.028764915 -0.07821395 0.113639414
0.056722652 0.20222726 -0.28162047 -0.08438587 0.060155682 -0.35005817 0.08472052 -0.44471335

input_net.1.bias f4 [128]
00000000: 5669 b13d c815 fc3e 318b 3bbe 1aca ccbe
00000010: bb27 903e d562 bc3e f714 9abe 5008 7fbe
00000020: cf54 763e 1803 c53d 9c64 c1be fa1e c6bd
00000030: 26e0 b43d 5d93 203d f373 b83e 17b5 843e
00000040: 0cee 8a3d 1d07 b23e bae6 f2be bc2c bb3d
00000050: b16f 72bc eda4 9cbe e2da a2bd cd21 17be
00000060: 7b1b f4be de42 343d c01d f43e 7b51 a8be
00000070: 5ff2 62bd 280c febd 778d 90be 6f37 6e3e
00000080: 163a f1be 028f f03e 5408 d0be 718e a2bd
00000090: b28e b5be 0df0 adbe fd22 c13e 5918 cdbd
000000a0: b4da 653e 4f70 29be d747 363c 9499 81be
000000b0: a2f2 d33e e64c e9be 6c99 7cbc d0b6 d03e
000000c0: b6c5 a8be 25cf 84bd 96e7 7b3d a55b e83e
000000d0: f031 5a3c 2da7 cebe 3c28 afbe 7d10 b43d
000000e0: 7c8c d73e 71ca f2be 9807 c2be e810 bfbe
000000f0: 0dbd dcbe 5b66 953c 255c 913e 7940 e3be
00000100: 6872 89bd 3750 f73d ad5e 203e e0cf 4d3e
00000110: 8414 cbbd f204 f2bd 85ea 9bbe acf2 c3be
00000120: 06df 82bc 0141 373e 9fa8 493d 35b9 cc3e
00000130: a8be e53e 2907 0a3e 9d34 83be e16d 7d3e
00000140: adfb 353e fa7f 72bd 1cc7 dabe 3632 e1be
00000150: 856d cc3e 63c7 b4be acff db3e 8836 e0be
00000160: ed86 84be 9435 97bd d5fb d73e 966e 9e3d
00000170: 7fb4 a9be 275c b23e 51eb 773d 5881 b6be
00000180: 4b10 ef3e 70d5 cc3e b5af 5fbd 24bb 23bd
00000190: b9e9 8a3e 4c1b f13c b734 87bd 87f8 223e
000001a0: cec1 ef3e e87b e6bd 1003 8e3e 8cdc 7bbe
000001b0: 98ee dfbe 1854 a03c 0db6 523c 3bf1 283e
000001c0: 0d7e e5be e7f1 d2be 0693 ba3c f58c da3d
000001d0: d036 e9be ac6a cebe cb1d 8ebe 2e27 79be
000001e0: db27 b93e 1c61 933e 9a4d dc3e 6605 e03e
000001f0: 5d8e 8a3e 04b2 95be e6a1 edbe 7b02 bebe
0.08662669 0.49235368 -0.18314816 -0.3999794 0.28155312 0.36794153 -0.3009412 -0.24905515
0.2405579 0.09619731 -0.3777207 -0.09673877 0.088318154 0.039203037 0.36025962 0.2591941
0.06783685 0.34771052 -0.47441655 0.09139392 -0.014797137 -0.30594578 -0.07951905 -0.14758988
-0.47677216 0.044009082 0.47678947 -0.32874665 -0.055406924 -0.12404662 -0.2823293 0.23263334
-0.4711463 0.46984106 -0.40631354 -0.07937325 -0.3546043 -0.33972207 0.37722006 -0.100144096
0.2244671 -0.16546749 0.011125526 -0.25312483 0.41396052 -0.4556648 -0.015417438 0.40764475
-0.3296334 -0.06484822 0.061500154 0.4538242 0.01331757 -0.4036192 -0.34210384 0.087922074
0.4209937 -0.47420076 -0.3789642 -0.37317586 -0.43112984 0.018237283 0.28390613 -0.44385126
-0.067112744 0.12075847 0.15661116 0.2009883 -0.099160224 -0.118173495 -0.30452362 -0.3827108
-0.015975486 0.17895891 0.049233075 0.39985052 0.44872022 0.13479294 -0.25626078 0.24748947
0.17771788 -0.05920408 -0.42730033 -0.4398362 0.39927307 -0.3530837 0.429685 -0.43791604
-0.2588419 -0.07383266 0.4218432 0.07735936 -0.3314552 0.34835932 0.06052715 -0.35645556
0.46692118 0.4000659 -0.054610927 -0.039973393 0.2713144 0.029431961 -0.066018514 0.15915118
0.4682755 -0.11254102 0.27736712 -0.2459585 -0.4373672 0.019571349 0.012860787 0.16498272
-0.44822732 -0.41200182 0.022775184 0.10671417 -0.4554963 -0.4031576 -0.27757105 -0.24331352
0.3616322 0.28785026 0.43027955 0.4375412 0.2706174 -0.29237378 -0.4641258 -0.37111267

transformer.layers.0.self_attn.qkv_proj.weight f4 [384, 128]
00000000: 1296 b13d 5a62 ca3d a697 c8bc 47d7 813d
00000010: e0fa e2bd a7a0 f6bb e7e2 543c 78e8 623b
00000020: 3855 103d 2fce 5f3d ecd0 a23d f1f1 3539
00000030: 4815 84bd 857d 6dbd 7798 5abc 26eb 823d
00000040: 22bf 393d c15d b5bd ba4b 583d 567a 6f3d
00000050: 5e49 c8bd 7ec5 913c 4ff3 88bd ce2c b1bd
00000060: 50cf c23c 4f0a 13bd 5324 ca3d e7ee 4cbd
00000070: 348c f13c 7524 e9bc 0eae 97bd 46c7 d9bc
00000080: 4829 193d 352e fd3c ee20 74bc 72ef d9bd
00000090: ff07 babc 6295 213d 7787 84bd 7e75 4b3d
000000a0: 74ab d13d e175 98bd fbc2 913d 4f31 aebd
000000b0: 15d7 3a3c dcc6 93ba 9206 b33d 6335 b43c
000000c0: 7dcc a8bc 2d4a 28b9 113c 6b3c b3fb 31bd
000000d0: 3856 963c 2c0e 8fbd 30b6 64bc e74d 293b
000000e0: 1dc2 fe3c 5fb7 7cbd 1198 a83d f6cb e23c
000000f0: f6e1 2bbd 56aa 90bd cb40 f6bc 3372 40bd
00000100: 9cd1 313d e70b b8ba 7545 ca3c 28ee a5bd
00000110: 9b4b c93c 2362 a23d fb10 c83d 9342 65bd
00000120: 41cb 5a3c 945c d13c 9978 a83d dd30 f1bc
00000130: 0701 c43d 4842 8fbc 66c8 d8bd 8047 d13d
00000140: c7da 7bbc 742f acbd 0d99 aabd 19e8 db3d
00000150: 8bd6 31bd 7e32 abbd 4858 cb3d 8966 01ba
00000160: c2e2 0c3d 40c0 84bb 9a2d 823d 72af a5bd
00000170: ecfb 723d 8e51 c93d aa87 90bd 3759 943d
00000180: eb48 1cbd af16 823d af8b bf3d 8755 8dbd
00000190: ceb1 93bd 5bc9 aabd aea0 873d f24d a8bd
000001a0: c626 34bc 772a c33d ccb3 f1bc b022 8d3d
000001b0: 8986 eebd 65dd b53d 535b 81bd 703d 3c3d
000001c0: 8eb2 9dbd 8298 e6bd 41b7 a3bb 3a3e 70bc
000001d0: 6b09 963b 8b54 6c3d 1972 e23d 1b13 753d
000001e0: 6fd4 87bd 522e f5bc 9d14 b43d 3e5f fc3c
000001f0: f20c 94bc 3eee 813d 9712 9fba 2b3c 463c
00000200: 8029 0bbd ec77 e0bc 5b4d e23d d5f0 00bd
00000210: 0e33 863d b6a4 43bc 6dbd c13d 5cc8 2cbd
00000220: 8c21 28bd 2ab2 c33d 921d b83c de52 a0bd
00000230: 10b7 863d 5bc1 923d aa7b ba3d d749 e3bc
00000240: 4bf5 a7bd df97 e1bc 2834 65bd e905 b4bd
00000250: f09c ae3d 5fea 333c 1e37 9a3d 9d18 2abd
00000260: 7a58 32bc dfb7 d63d ad4e 3abc 34a8 653d
00000270: 451d 6c3d e18f 3d3d 113b e6bd 2fb9 cebd
00000280: fadd 303d d0e1 7b3d 7df7 d83d 3383 a33c
00000290: 8825 c0bd 9abc 253d 9fba 563d e4df c23c
000002a0: cfaa 0a3d ebff 353d 2b45 5fbd dbfb a7bd
000002b0: 4dba 4cbc 6001 aabd 4bbb 6a3d 8c91 703c
000002c0: fef4 92bd c0a2 f6bc 9f6a ff3c 9a32 bfbd
000002d0: e79b 573c 29ca 923d e171 abbd f78f 33bd
000002e0: 4967 e2bd 2085 953d 893b f03c 78de 053d
000002f0: 8504 083d 3685 11bd ba4b 9dbd f221 b63d
00000300: ef85 a53d e3c8 22bc 1b20 11bd 6d9a b73d
00000310: 6793 173d 7328 013d 5bb6 a6bd 3f06 ca3b
00000320: 04c5 b23d 59f1 01bb a3d1 b53d 85f2 63bb
00000330: d63e 66bd 028f c6bd ed94 abbb cf2b 5b3d
00000340: f2bc bd3d 8599 3cbd 2335 66bc 4a1c 873b
00000350: 8712 c93b fe35 b4bd 32d7 bebc cfb6 cebc
00000360: ea35 b23c a919 463c 9122 37bd 3749 4abd
00000370: f2c5 12bd 2af9 95bd f3a8 83bb bb8b 113d
00000380: 110b b2bd c124 d2bd 8a78 6abd 41fc 3f3d
00000390: 0480 c3bd c30c afbd 0f0b b7bd c068 92bd
000003a0: 0d1f 8abc ce59 b5bd d7ec d03d 866f 8dbd
000003b0: 6dbb ce3d 3eaa b23d 431d 94bd 6221 e3bd
000003c0: c074 7d3d 4ad7 b33d d753 63bd 1728 363d
000003d0: d84b 02bd 5487 0bbd f358 753d 226b a73d
000003e0: b2b2 bfbb 4b05 323d 196a d23d 52e0 5cbc
000003f0: 9da7 4ebc 2649 a43d 4fad 80bd 1e31 383d
0.08671202 0.0988204 -0.024486374 0.06339889 -0.11083007 -0.0075264755 0.012993551 0.0034623425
0.03523752 0.05463999 0.07950005 0.00017351635 -0.064493716 -0.057981033 -0.0133420145 0.06392507
0.045348294 -0.08855773 0.052806593 0.058466278 -0.09779619 0.017794367 -0.066870324 -0.08651124
0.023780495 -0.035898503 0.098702095 -0.050032523 0.0294858 -0.028459767 -0.07406245 -0.026584279
0.037392884 0.030905822 -0.014900429 -0.10641374 -0.022708891 0.039449103 -0.0647115 0.049672596
0.1023778 -0.074443586 0.07117268 -0.085054986 0.011403819 -0.0011274475 0.087414876 0.021998113
-0.02060532 -0.00016049361 0.014357583 -0.04345293 0.01835166 -0.06985125 -0.0139594525 0.0025833787
0.03109842 -0.061698314 0.08232129 0.027685147 -0.04196354 -0.07063739 -0.030060193 -0.04698391
0.04341279 -0.0014041633 0.024691323 -0.08102065 0.024572184 0.07928874 0.09768864 -0.055971693
0.013354124 0.02555684 0.08226127 -0.029442245 0.095705085 -0.01748766 -0.10585098 0.10218716
-0.015371985 -0.084074885 -0.08329973 0.107376285 -0.043417495 -0.0835924 0.09928948 -0.00049362384
0.03439594 -0.0040512383 0.06356354 -0.08090104 0.059322283 0.098300084 -0.07057126 0.07243579
-0.038155477 0.06351983 0.093528144 -0.06901079 -0.07211648 -0.08339187 0.06622444 -0.08217992
-0.010995572 0.09529584 -0.02950468 0.06891382 -0.11646754 0.08880118 -0.06316247 0.04595703
-0.07700072 -0.11259557 -0.004996211 -0.0146632735 0.0045787594 0.057697814 0.11056919 0.059832674
-0.06632315 -0.029929314 0.08792994 0.030807134 -0.018072579 0.06344269 -0.0012136278 0.012099306
-0.033975124 -0.027400933 0.11049911 -0.031479675 0.06552707 -0.011941126 0.09459958 -0.042183265
-0.041047618 0.095554665 0.022475038 -0.07828306 0.06577885 0.07165786 0.09105618 -0.02774517
-0.08201083 -0.027538238 -0.055957943 -0.0879019 0.08526027 0.010981171 0.07530044 -0.04152738
-0.010885352 0.104842894 -0.011371297 0.056068614 0.0576451 0.04627979 -0.11241735 -0.10093915
0.043180443 0.06149465 0.1059408 0.019960022 -0.093821585 0.040463068 0.05242407 0.0237884
0.033854302 0.044433516 -0.054509323 -0.082023345 -0.012495589 -0.083010435 0.057307523 0.014683139
-0.07175635 -0.030106902 0.03117877 -0.09335823 0.013159729 0.07167465 -0.0837133 -0.043838467
-0.11054856 0.07300782 0.029325264 0.032682866 0.033207435 -0.03552743 -0.07680459 0.08893193
0.080821864 -0.00993559 -0.03543101 0.08965001 0.03700581 0.031532716 -0.0814025 0.0061652954
0.08728984 -0.0019827692 0.08877876 -0.0034782004 -0.05621227 -0.09695245 -0.005236259 0.053508576
0.09264554 -0.046044845 -0.014050755 0.0041232454 0.006136242 -0.08799361 -0.023295972 -0.025233654
0.021754224 0.012091079 -0.0447107 -0.04938623 -0.035833307 -0.07322915 -0.004017943 0.035533648
-0.08693517 -0.102609165 -0.05724386 0.046871427 -0.095459014 -0.08547356 -0.08937656 -0.07148886
-0.01686051 -0.088550195 0.102014236 -0.06906037 0.100943424 0.08723877 -0.07232144 -0.11090352
0.06187892 0.087812975 -0.055499878 0.044471826 -0.03181061 -0.034064606 0.05989928 0.08174731
-0.0058501596 0.04346208 0.10274143 -0.0134812165 -0.012613204 0.080217645 -0.06283056 0.044968717

transformer.layers.0.self_attn.qkv_proj.bias f4 [384]
00000000: 37b8 9fbb 166f a7bb 0620 a2bb 6f62 f6bb
00000010: e951 32bb a21a 71b9 9ed5 ac3b aebc af3b
00000020: caef cb3b 1a8b 763b 9215 47bb 3d7c b83b
00000030: e0a6 f1ba ec67 02bc ca72 e7bb be10 453b
00000040: 758f 34bc d510 ac3b 79f1 14bc 8055 3bbb
00000050: 6e18 963b b364 a2bb b06b ea39 89b5 97bb
00000060: 5b06 5eba 2f79 b9bb cb80 37bc d0ce 643a
00000070: f749 e939 a2c4 b03b bf17 ae3b ee04 d33a
00000080: 04d8 cdba 37a5 623b 9432 383a 5e48 163b
00000090: a1af 42bc 17db e8bb 5c26 f73a ddb9 af3b
000000a0: ddd0 87bb a8a6 103a d49c 4bbb a684 e4bb
000000b0: fb83 fe3a ff0b 293b 4445 9cbb 8836 1c3c
000000c0: 95a9 19bb 44f7 f83b 84a2 a0ba d8af 6a3a
000000d0: 5eb4 d5bb 0886 213c 8e37 fc3b 594b 0fbc
000000e0: 95a2 04bc 6153 d83b dd46 8e3b d483 103c
000000f0: 6d1e 91bb 88d3 82bc e1de 463b 479e a6bb
00000100: 6549 e1b9 7897 ce39 ed62 073a a4b2 d0b9
00000110: 954f 1838 0041 8039 3960 b3b9 d20b fdb8
00000120: 2c40 94b9 3c65 59b9 5c8b 8539 a990 28b9
00000130: c4e2 0eb9 0323 edb8 9e14 0f3a e640 02ba
00000140: a4a3 46ba 82c6 bdb8 3127 b13a 554e e338
00000150: 5b60 58b8 fc66 853a 4958 19b9 abea 11ba
00000160: b79b f939 7e72 6bb9 cf2a 30b9 08be 91ba
00000170: 34b2 7139 5b02 b7b8 8d42 88ba 0da7 5739
00000180: 9690 04ba 68f8 94b9 3fc1 50b9 f92c 0739
00000190: 6dc2 2039 e3a7 8739 4e03 adb9 0442 54ba
000001a0: 32d3 82b7 9742 4439 0710 cab8 5c9e ed39
000001b0: 3f1e 4039 06ed 013a c9d9 cdb8 03c3 9eb9
000001c0: 3d1e 1139 90e2 9439 19b2 10ba f96f 4939
000001d0: 8fcb 8739 481e 4b37 6273 2038 edbf b8b9
000001e0: 3734 e1b9 287a b038 fe45 653a a71d 333a
000001f0: a0b3 353a 1bd8 4c39 0b90 0239 baf5 bcb9
00000200: 1199 ae3b d353 d5ba ab95 99bb d991 c9ba
00000210: f94d d83b d215 373b e86a d1b9 4978 cb39
00000220: 812b 4ebb ff65 abbb 0ba5 073b 0107 9139
00000230: 6235 8e3a bc89 61ba 5ac6 cdbb 4b9b ccba
00000240: 6117 e439 88d9 5abc 0d54 94bc 2a71 933b
00000250: 1ab1 02bc 53b4 46bc b6b5 81ba 466d 113c
00000260: ef0e 6c3b 4084 1fbb ef6f ec3b a088 123b
00000270: f313 533a c524 87ba 4475 91bb 56b3 22bb
00000280: 6e3f 9aba 2e86 3f3a 880f 54bb 07fb 713a
00000290: ab1d 2aba aa59 d239 9af7 6cbc da6d 6c39
000002a0: f09d 893b 0748 1bbb d583 053b 0057 5abb
000002b0: c26e 8c3b 21c4 233b 8698 293b caf8 85bb
000002c0: 9868 58bb 98d4 963b c90a 6c3b bc00 fb38
000002d0: 1100 ea3b da66 c63a 8777 803a ed35 b3bb
000002e0: b177 90bb 2574 97bb ff7d 38bb 3a2e 93bb
000002f0: 1734 af3b e68a d1ba 31ae 87bb 8fd3 98bb
00000300: 5ae3 7b3c e703 de3c 2bd1 873b 632e a83b
00000310: e504 f3ba eab5 3739 0823 6dbb ea7c f2ba
00000320: 0bd8 febb b7c6 96bc d8d9 683c ed27 3c3c
00000330: c65b 34bc 5147 7bbb ba7f e13b 9cc4 b7bc
00000340: e0f7 8bbb 891c dbbb c31d d3bb c84f c3bb
00000350: 3b2f 81ba 2689 8a3a 91e1 143c 2e6f 4abc
00000360: 0b46 efbb 5090 b53a ef7c d8bb a3d3 423b
00000370: 6c90 063b c68a 0dbb 50d5 a53c 913e aa3b
00000380: 3015 77bb c35f 2ebb 2d6a afbb b445 d5ba
00000390: 4900 59bb 1f99 84bc 9806 9abb 2dcd d1bb
000003a0: c830 003b 1a0c 81bb cfe2 f43b 4f63 933b
000003b0: fa3f 113c 6001 1ebc 821a e9bb 2737 f4bb
000003c0: fb74 8bbb a6f8 02bb 8fc9 8bbb d590 d0bb
000003d0: a890 e1ba 04d7 aabb fe13 7a3a d2de 0d3c
000003e0: 27f6 a3ba 8e55 fa3b 5d48 fd3b 611c f4bb
000003f0: 3c74 f63c 1a52 113b 3c69 a6ba c2df 5d3b
-0.004874255 -0.005109678 -0.004947665 -0.0075190584 -0.0027209467 -0.00022993473 0.0052744886 0.0053630685
0.0062236534 0.0037619532 -0.0030377847 0.0056300447 -0.0018436573 -0.007959347 -0.0070632445 0.0030069794
-0.011020531 0.00525103 -0.009090775 -0.0028584898 0.004580549 -0.004955852 0.0004471219 -0.004629795
-0.0008469575 -0.005660198 -0.01120014 0.0008728327 0.0004449633 0.005394534 0.0053128893 0.0016099492
-0.0015704636 0.003458334 0.00070265797 0.0022931318 -0.0118826935 -0.0071061957 0.0018856036 0.005362733
-0.0041447715 0.0005517998 -0.0031068819 -0.0069738207 0.0019417995 0.0025794504 -0.0047689993 0.009534486
-0.0023447026 0.0075978357 -0.0012255465 0.00089525944 -0.0065217456 0.009858616 0.0076970523 -0.008745992
-0.008095403 0.0066017364 0.0043419437 0.008820493 -0.004428676 -0.015970007 0.0030345249 -0.005084786
-0.00042970027 0.00039404235 0.00051645824 -0.0003980595 3.631374e-05 0.0002446249 -0.00034213232 -0.00012066182
-0.00028276572 -0.00020732445 0.00025471568 -0.00016075619 -0.00013626652 -0.00011307562 0.0005458089 -0.0004968777
-0.0007577485 -9.049197e-05 0.0013515708 0.00010838794 -5.158815e-05 0.0010177786 -0.00014624106 -0.0005566279
0.00047608998 -0.00022453998 -0.00016800615 -0.0011119256 0.00023049937 -8.726559e-05 -0.001039581 0.00020566229
-0.00050569454 -0.00028413837 -0.00019908416 0.00012891357 0.00015331218 0.00025874292 -0.00032999594 -0.00080969953
-1.5595553e-05 0.00018716823 -9.635096e-05 0.0004532215 0.00018321814 0.0004956279 -9.8157274e-05 -0.00030281403
0.00013839542 0.00028397562 -0.00055197027 0.00019210567 0.0002590087 1.2106793e-05 3.825443e-05 -0.0003523821
-0.00042954247 8.415087e-05 0.00087460864 0.00068327266 0.0006931368 0.00019535462 0.00012451426 -0.00036041235
0.0053283055 -0.0016275592 -0.0046870313 -0.0015378549 0.006601092 0.002793659 -0.00039943238 0.00038808797
-0.0031459036 -0.0052306647 0.0020697739 0.00027661773 0.001084965 -0.0008603593 -0.006279749 -0.0015610246
0.00043504967 -0.013357528 -0.018106485 0.004499574 -0.007976795 -0.012127954 -0.0009896073 0.0088761505
0.0036019643 -0.0024340302 0.007215492 0.0022359267 0.0008051984 -0.0010310641 -0.004439028 -0.002482613
-0.0011768171 0.0007306066 -0.003235789 0.00092308264 -0.0006489406 0.00040121126 -0.01446333 0.00022547637
0.004199736 -0.0023694055 0.0020372767 -0.0033316016 0.0042856643 0.0024988728 0.0025878265 -0.004088496
-0.0033021327 0.00460298 0.003601717 0.000119687495 0.007141121 0.0015136853 0.0009801247 -0.005469075
-0.0044087996 -0.004622 -0.0028151271 -0.0044915946 0.0053467858 -0.001598683 -0.0041406383 -0.0046638916
0.015374029 0.02710147 0.004144808 0.005132483 -0.0018540887 0.00017520008 -0.003618421 -0.0018500362
-0.007777219 -0.018405301 0.014212094 0.011484128 -0.011008209 -0.0038342068 0.0068816813 -0.022432618
-0.0042714924 -0.0066867513 -0.006442757 -0.0059604384 -0.0009855995 0.0010569438 0.009086982 -0.012355609
-0.007302051 0.0013852213 -0.00660669 0.0029728196 0.002053286 -0.0021597608 0.020243317 0.005195447
-0.0037701838 -0.0026607371 -0.0053532333 -0.0016271384 -0.0033111742 -0.016186295 -0.004700493 -0.0064026327
0.0019560326 -0.00393821 0.0074733268 0.0044979225 0.008865351 -0.0096438825 -0.0071137557 -0.0074528637
-0.0042558885 -0.0019984632 -0.004265971 -0.0063649216 -0.0017209249 -0.00521362 0.0009539722 0.0086590815
-0.0012509272 0.0076395934 0.0077295736 -0.007449672 0.030084722 0.002217418 -0.0012696157 0.0033855294

transformer.layers.0.self_attn.o_proj.weight f4 [128, 128]
00000000: 4f51 f63d cf40 c9bc 5774 cc3c f309 e5bc
00000010: 5982 013e 1bc8 0c3e 9e92 d5bd 0062 a0bd
00000020: d2a9 36bc 6987 c0bd cd2a 38bb 6ffd dc3d
00000030: 4462 e93c c043 0e3e fe2a ba3b eb35 6d3e
00000040: 4558 e7bc ed1a 5a3b 1ed5 16be 0f11 babc
00000050: e8a2 833d 2970 763c b288 f13c 61d4 1ebd
00000060: 6136 d7bd 5c48 a2bd 0e30 c5bd b459 27bd
00000070: 1586 8fbd 4f61 303e c8d4 e73c 1af2 de3d
00000080: 5e4f 133e da3c fb3d 144e 28bd 0c90 18be
00000090: 7469 c4bd 9a93 7e3c 8493 8d3d 2a70 ebbd
000000a0: 54f0 90bc f933 c03d 4fc7 c03c 1eef 91bd
000000b0: c50b ce3d 20f4 f23d fa06 3e3c 97a1 aa3d
000000c0: 4508 a43d b9c5 cebd 7d86 853a 9e97 5b3d
000000d0: 50a9 983b e3b9 8f3d 61c4 973d 2249 023d
000000e0: 66a0 0dbd a056 1c3c 039e 5b3e 282b 8d3d
000000f0: d252 74bd 1948 353d e14a 4cbd 179b 903c
00000100: 005f adbd abac 0abd 4b8b d33d eac5 a4bd
00000110: a95b 993b f3e4 1d3d a222 513d d745 d73d
00000120: 2e6c 01be 304f 433d e757 6e3d 25dc 97bd
00000130: e72e ef3d 4edf 08be e115 013e f845 03be
00000140: 5fba 733d 4eb4 063e eddc 3d3d 2683 193d
00000150: a8a5 c6bd c7c4 9b3d fdb9 14be da6f 523d
00000160: d35f 01be f680 853c 8a6d 88bb 627f 0abd
00000170: 243e 76bd a390 003e a574 543d 63cc f33c
00000180: b431 d03d e8f1 083e 4add ff3d 210b b2bd
00000190: f90a c6bd 393d 95bd 29c6 28be 566d b0bd
000001a0: f49b 97bd 4d20 1c3e 757f 443d 4885 6bbd
000001b0: 58fe 12be 7f79 973d da2c c63d e2cb fd3c
000001c0: 6c30 95bd 2949 893b 3c2f ecbd 655c ad3d
000001d0: ddd4 023e 02cc 5bbc 0f91 91bb 7e24 e6bb
000001e0: 98b2 0abe 0317 04be 1022 063e 240e d73d
000001f0: 4565 ea3d 5222 abbd 1ac1 4abd 5d7a e23d
00000200: a1de d53c 5379 8bbc e1a0 03bd e0d5 fb3c
00000210: 4f7e ff3d 2e72 393d 6891 67bd c696 9e3c
00000220: 43a8 633d d070 ad3c 46bf ff3c 1965 683d
00000230: 6d71 bd3d 0544 783d b1fb 58bd 2619 80bd
00000240: dcee 043e 7ec6 c13d 407c 14bc 68c9 62bd
00000250: 0591 43bd a473 bb3c 3948 faba c5e6 95bd
00000260: 41d8 d63d 6f8b 263c 3c8e 273b 6373 b13d
00000270: b2bb a43d 53a0 65be d7bc aebd b02d 0f3e
00000280: c4de 2abd 8b52 973d 8255 26be 66b9 673c
00000290: b203 72bd ca18 ae3d 975a ee3d 5414 343e
000002a0: c045 2abd 3cbd 8e3d c9cf bfbd 03fa f7bd
000002b0: 597d 493d 5726 033e 2eaa 71bb a5cf fcbd
000002c0: 9f2f 653b b90b fabd 6017 fe3d ad96 b9bc
000002d0: 5775 4b3c 67bb d1bd 0fd4 acbd c3e3 0cbe
000002e0: 1859 2d3d 0fd0 b9bd 7e35 32be 706f 453c
000002f0: 0246 ea3b e89c 00be 7980 0bbd 773a 1dbe
00000300: 78a8 923d b80e 8ebb 732e debd 8dbe ef3d
00000310: cd91 3ebc bcf9 c2ba ecf3 a93d 10c1 4bbd
00000320: 4031 023e b43a eabd d67b bebd e2e7 053e
00000330: 67a0 6a3d 964f 3c3d 51b0 6abd 8664 8d3b
00000340: 6a43 e13d e969 483d 92fc b2bd f953 c33d
00000350: ea7e 18be 0347 9d3c 6a58 0a3e 9781 cdbd
00000360: 517c 1dbb 25a7 bbbd ef2e ecbb 97cd 8e3d
00000370: a5e8 c63c 2687 f43d d18a 71bd 899c 053e
00000380: a7c0 323d a604 44bc 9ab3 34bd ab12 eabd
00000390: 5266 14be 82cb 083e ee0c cf3d d942 033c
000003a0: 5841 2d3d 7c8d 113e 2c16 723d a312 fcbd
000003b0: 5812 6c3c bdd3 c5bd 9ed8 dbbd e70f 5c3d
000003c0: fb4a 9d3c 23ee c23d 3a63 00be aa80 6c3c
000003d0: a7d9 bbbd ed7f ae3d 075e 5cbb 83b1 fa3d
000003e0: 414f 483d 18f7 3cbc ce1b f53d 58ab ebbc
000003f0: efe3 9f3d 12f4 a6bd 01a8 48bd c5de 0fbe
0.12027227 -0.024567036 0.024957819 -0.027958846 0.1264738 0.13748209 -0.10428356 -0.07831192
-0.011148887 -0.094008274 -0.0028101683 0.10790526 0.02848924 0.13893032 0.0056813946 0.231651
-0.028240332 0.003328021 -0.14729735 -0.022713212 0.06427556 0.0150413895 0.029484127 -0.03877676
-0.10508419 -0.07923958 -0.09628306 -0.040857032 -0.07007996 0.1722462 0.028299704 0.10886021
0.14385745 0.12267466 -0.041090086 -0.148987 -0.09590426 0.015538121 0.06912902 -0.11496003
-0.017692722 0.09384913 0.023532538 -0.07125686 0.100608386 0.118629694 0.011598343 0.08331602
0.0800939 -0.10096306 0.0010187175 0.05361139 0.0046588555 0.07017877 0.07410503 0.031808026
-0.034576796 0.009542137 0.21446995 0.06892997 -0.059649296 0.04425821 -0.049876098 0.017652078
-0.084653854 -0.033856075 0.103293024 -0.080455616 0.004680116 0.03854842 0.05105842 0.10511368
-0.12638924 0.04768294 0.0581893 -0.07415036 0.11678868 -0.13366434 0.12606002 -0.1281966
0.05950391 0.13154718 0.04635327 0.03747859 -0.09699565 0.07605892 -0.14524074 0.0513762
-0.1263421 0.016296845 -0.0041634487 -0.033812888 -0.060117856 0.12555175 0.051869053 0.029760545
0.1016573 0.1337353 0.124933794 -0.08693529 -0.096700616 -0.07287068 -0.16481842 -0.08614604
-0.074027926 0.15246697 0.047973115 -0.057500154 -0.14354837 0.073962204 0.096765235 0.030981008
-0.07284626 0.0041896296 -0.11532447 0.084648885 0.12776513 -0.0134153385 -0.004442341 -0.007023393
-0.1354469 -0.12899403 0.13098931 0.10500744 0.11445097 -0.083561555 -0.049500562 0.11058495
0.026107134 -0.017025625 -0.032135848 0.030741632 0.12475263 0.045274906 -0.056535155 0.019359004
0.05558039 0.021171957 0.031219136 0.05673704 0.0925015 0.060611743 -0.052974407 -0.06254797
0.12981743 0.094616875 -0.009062827 -0.055367857 -0.047745723 0.02288229 -0.001909501 -0.073194064
0.10490466 0.0101650795 0.0025566956 0.086645864 0.080436125 -0.2242444 -0.08532112 0.13982272
-0.041716352 0.07388791 -0.16243556 0.0141433235 -0.059085555 0.08500822 0.116383724 0.1758588
-0.041570425 0.06969687 -0.09365804 -0.12108233 0.049191806 0.12807594 -0.0036875117 -0.123442926
0.0034971011 -0.12209267 0.12406802 -0.022654856 0.012418113 -0.10240822 -0.084388845 -0.13758759
0.042321295 -0.09072887 -0.17403218 0.012050495 0.007149459 -0.12559855 -0.034058068 -0.15354334
0.07161039 -0.0043352507 -0.10848703 0.117062666 -0.011631441 -0.0014875452 0.082984775 -0.049744666
0.127141 -0.11436978 -0.093009636 0.13076738 0.057281878 0.045974337 -0.057297055 0.004314962
0.10999186 0.04892913 -0.0873958 0.09537501 -0.14892164 0.0191989 0.1351029 -0.10034483
-0.0024030397 -0.0916274 -0.0072077434 0.06972807 0.024280855 0.1193984 -0.058970276 0.13047995
0.04364076 -0.011963999 -0.044116594 -0.11429342 -0.14492157 0.13358882 0.10109888 0.008011543
0.042298645 0.14214128 0.059103176 -0.12308242 0.01440867 -0.096595265 -0.10734676 0.053726103
0.019200793 0.09518077 -0.12537852 0.014434973 -0.09172373 0.08520494 -0.003362538 0.12240889
0.048903707 -0.011533521 0.11968194 -0.028768227 0.07807147 -0.081520215 -0.048988346 -0.14049824

transformer.layers.0.self_attn.o_proj.bias f4 [128]
00000000: c1a9 3e3b 87f7 0f3c 19ef dfba ec47 353c
00000010: a305 18bb b3d5 51bc f743 823c d26b 2abb
00000020: 6822 2a3c 368a 95bb d316 933c 091e 2e3c
00000030: 5be4 17bc 521b 753b 1dfd e13b 6e1d 24b9
00000040: f0d6 593c 5ea9 ceba e0b0 1dbc 326e d73b
00000050: a11a 95ba 4d7d d73b c4d0 383c 4145 bc3c
00000060: 2dd5 293b 8722 e13b 6fa0 303b 05fa ab3c
00000070: a746 dd3b ebfa c0bc ba74 0439 2d37 163c
00000080: 6584 9e3a 3421 54bc bb73 943b 4b24 24bb
00000090: f523 60bb d92f 04bb 95d6 e6bb df89 843b
000000a0: 8f89 fe3b c48a 6a3c 115d de39 8426 c93a
000000b0: 0ebb 4b39 e684 2d3c 0873 b93b cff5 e7bb
000000c0: 82b7 803c 6114 503c bddc 1cbc 8c09 8fbc
000000d0: 1d46 193b 548a cbbb ed32 b53b bd14 663b
000000e0: 4c2c 8939 fb4c 403c 367d da39 035b 3d3b
000000f0: 8948 84bb 4e7c d0ba d0ee 253b 3ff6 2bbb
00000100: 2e71 2c3b 9ec2 2dbc c252 943c 6792 713c
00000110: 26dc 343b 2049 853c 4993 5f3c 1cb8 d63c
00000120: 8ee9 113b cdf1 2c3c 4ae4 0fbc 03a1 3dbb
00000130: a338 f2bb 0a96 073b 7608 7dbb d5f6 423b
00000140: a544 52bc 3c0f f13b 7e84 9cbb 7ff7 9f3a
00000150: 84b0 56bc 5c43 94b9 2635 03bc af10 313b
00000160: 6dc5 39bc 51c0 8cbb ec9f 4cbb 6036 ccba
00000170: c90f 9dbb 566a aebb a345 08bc 3b4b cabb
00000180: 26b8 80bc a5e7 25bb c17d 44bc f558 2ebc
00000190: 911e 8bba 0122 acbc e8c6 b7bb 07e3 8dbc
000001a0: 1c67 e9ba beab 45bb 35b7 b1bb a093 3cba
000001b0: e347 6c3b a6ec 83bc 01f0 bdba dbfb 9bbc
000001c0: 3a66 f93a 90a2 5fbb ffc5 ad3b 037a 81bb
000001d0: 74e4 c23b 5645 acbb ce4c 1a3c 58cc 22bb
000001e0: 0e36 8dba aa5b 49bc 6314 a43b 8826 09bc
000001f0: 75eb 44bc a858 b3bc ce61 9e3b afed 47bc
0.002909288 0.008787042 -0.0017084806 0.011064511 -0.002319672 -0.0128072975 0.015901549 -0.0026004207
0.01038418 -0.004563595 0.01795522 0.010627278 -0.009270753 0.0037400317 0.0068966285 -0.00015651222
0.013295874 -0.0015767028 -0.00962469 0.0065744156 -0.0011375734 0.0065762163 0.011280242 0.022982242
0.0025914416 0.006870571 0.0026951095 0.020993242 0.006752807 -0.023557147 0.00012631985 0.009168428
0.00120939 -0.012947369 0.0045303977 -0.0025046046 -0.003420112 -0.002017012 -0.007044623 0.004044756
0.007767863 0.014315311 0.0004241248 0.0015346562 0.00019429272 0.0105907675 0.0056594647 -0.007078863
0.015712503 0.012700171 -0.0095741125 -0.017460607 0.0023387738 -0.0062115584 0.0055297525 0.0035107576
0.0002616368 0.011737104 0.0004167349 0.0028893359 -0.004036967 -0.0015906186 0.0025319345 -0.0026239303
0.0026312578 -0.010605482 0.018105868 0.014744378 0.002759704 0.01627022 0.013645955 0.026210837
0.0022264454 0.010555697 -0.008782456 -0.0028935082 -0.0073920055 0.0020688795 -0.003860978 0.0029749174
-0.012833749 0.0073565524 -0.0047765365 0.0012204497 -0.013103608 -0.00028278946 -0.008008277 0.0027018
-0.011338574 -0.004295387 -0.003122325 -0.001558017 -0.0047931415 -0.005322735 -0.008317384 -0.006173519
-0.015712809 -0.0025315073 -0.011992873 -0.010641326 -0.0010613968 -0.021012308 -0.0056084283 -0.01732017
-0.0017807218 -0.003016218 -0.0054234513 -0.00071936287 0.003605359 -0.016104054 -0.0014491082 -0.019040992
0.0019027658 -0.0034123994 0.005303144 -0.0039513125 0.005947644 -0.005257289 0.009417726 -0.0024841037
-0.0010773556 -0.012289921 0.005007313 -0.008371003 -0.012019028 -0.02189286 0.0048334366 -0.012202664

transformer.layers.0.linear_net.0.weight f4 [256, 128]
00000000: 81b4 81bd 2e04 b33b 1a5b 3f3d 1807 cfbc
00000010: 637b 203d 63d2 b5bd 16c7 6ebd de65 80bd
00000020: 46fd 913c 54c7 073d 220a b43d b3f6 d9bc
00000030: c657 63bd f182 3fbd 6b65 133d bae3 663d
00000040: 62be 613c a4c6 7dbc 0dbb aebc a00d 953d
00000050: 0828 9f3c 0e2f 1b3d 60b7 8dbd 0802 adbc
00000060: 9091 9dbd dfc1 86bd 1e7e 853c 31c2 2b3d
00000070: 1f1a 8bbd d2b0 923c f402 b43d 5795 8bbd
00000080: 6823 adbc 39a5 133d 4085 ae3c d488 2f3d
00000090: 863f e63c ee98 883d 30b2 353d 6c48 633d
000000a0: 9c0f 123d 4f2c 05bd 21bd ad3c feb3 973d
000000b0: 207b 5f3d aaa2 913d 948f b83d 349e ea3c
000000c0: 69e3 853d c06a 443d 4be8 9d3c ebfc 45bd
000000d0: c316 d1bb 14eb 6c3c 3a23 4dbd dcd2 a9bc
000000e0: d1a8 c73d 1ae0 123c 5dcf 39bd 15a4 583d
000000f0: 4a63 7d3c 3794 debc 2058 a03c 1b43 4d3d
00000100: 64f3 53bc 843e 50bd 58c4 51bd 303b a8bd
00000110: 6636 873a 38fb 79bb 3968 38bd c8f3 69bd
00000120: 17b9 b53d 908f 003d 557b 033d e01e 21bd
00000130: 2419 9c3d 376b d33c 1a5c 173d 495c a2bd
00000140: fc7e 0e3d 9b34 5a3d ee90 223d ad0f 163d
00000150: 936a 9abd 0298 74bc 4511 9ebd 472d 2e3d
00000160: a993 713d 9df9 00bd f87e 28bc 34ac cf3c
00000170: 48cd 16bd 1246 bb3c 01fd 813d 387f a13c
00000180: 6511 4dbd c300 b93d dd81 6ebb bae6 4cbc
00000190: cb68 463c 472d 2f3d a135 81bd 9335 a5bc
000001a0: 0cfb 883c cec4 693a ab88 bbbd 8665 72bd
000001b0: 9f14 7dbd daa0 51bd 6b93 18bd 8ca4 5d3d
000001c0: efc7 36bd 5d18 90bb 4be4 1bba 8142 893b
000001d0: 96ff 4d3d 9aa6 493d 7286 8fbc d707 9a3a
000001e0: 89c2 11bd 06e9 4a3d 5a77 e63d 8cb9 a4bd
000001f0: 1fd6 87bd 69c4 473d 8edc 3ebc 0242 ba3d
00000200: 8fa4 b7bd 21cc b33d 209f d2bd f328 a33c
00000210: 02eb ad3d 6a7c 83bd d382 4bbd ef5f a23d
00000220: 0322 cdbc d14a 3fbd 442f 7b3c 91ad 973d
00000230: 5dbc 893d 0ed6 a3bc 7b67 63bd 6f38 703d
00000240: 2439 e43d f805 80bd 6832 2cbc d140 2a3d
00000250: 296d e9bc 52e9 65bd ada5 e93c 2d81 d33c
00000260: b5fe 00bc acad cfbc 48d4 bdbd fa65 8dba
00000270: c48a 413d 73e3 a2bd c04c b43d f101 803d
00000280: 7b47 443d 422a 76bd b520 d3bd 8b49 8c3d
00000290: 5527 0ebe 510f 41bc 01e6 583d 977b e0bd
000002a0: 0f24 d93c 0385 723c 85c7 ddbd fff4 953d
000002b0: a144 ddbc a5f9 04bd 1eee 18bd 1318 d53d
000002c0: e026 d63a 3d61 f9bc 04f2 a23b aa20 7ebc
000002d0: 7ffc 91bd 430c 66bd 1151 de3c 8bd1 81bc
000002e0: fed9 573c 822c a6bd cfc3 02be 4dc6 34bd
000002f0: 5b9c a93c 7b1f 633d 0787 173d d53e de3d
00000300: 3474 883d e257 d9bc 9f22 c53c 4bc1 2d3a
00000310: a4d4 c33d 769e 12bd cc52 6e3d e3a3 dcbc
00000320: e859 ca3d d9a6 93bd 2186 933d c520 0abe
00000330: 8215 9abd 0450 773d 46a7 07bd ad8e 0dbe
00000340: abe8 7f3d 9f6f 223d ca1b 23be 939f 89bd
00000350: dfb0 933b db87 6b3b 6d0b 413c 5f4b cd3d
00000360: 02da 1bbc 1362 f1bd 0a0e 163c 9ac6 1bbd
00000370: 5909 9cbc 8251 c43d b967 cd3d b6e4 bf3c
00000380: 1267 a23c c3c9 e9bd 3eef 6abd ee94 563a
00000390: 4f51 453d 5ca6 033d 46b9 b3bc ef7c 9bbd
000003a0: 6120 02bd ca18 cdbd fc7f 403c 0768 833d
000003b0: ee50 c23d 45a2 bfbd 444e 993b 1314 9b3d
000003c0: f575 db3d 4917 003e c6d8 a1bd 56a7 3bbd
000003d0: 4310 d13c 23c7 cfbc 0fb1 edbc 8363 1dbd
000003e0: 31c9 75be 02a4 7f3c 7ba1 66bd 041e 77bc
000003f0: a4aa b7bc 6735 aa3d faf6 c03c 9437 ce3d
-0.063332565 0.0054631447 0.04671774 -0.025271937 0.03918017 -0.08878019 -0.058295332 -0.062694296
0.017820965 0.03314908 0.08790995 -0.026606893 -0.05550363 -0.046755735 0.03598539 0.05636952
0.013778301 -0.015489254 -0.021329427 0.072779894 0.019428268 0.03788667 -0.06919742 -0.021119133
-0.076937795 -0.06579947 0.016295489 0.041933242 -0.067920916 0.01790658 0.08789626 -0.06815594
-0.021135047 0.03604624 0.021303773 0.0428551 0.028106462 0.06669794 0.044359386 0.05548899
0.035659418 -0.03251296 0.021208348 0.07407378 0.05456078 0.07111104 0.0901176 0.02863989
0.06537516 0.047953367 0.019275805 -0.048336904 -0.0063808872 0.014460344 -0.050082423 -0.020730428
0.09748996 0.008964563 -0.045363773 0.052890856 0.015465567 -0.027170284 0.019573271 0.050112825
-0.012936447 -0.05084087 -0.05121264 -0.08214414 0.0010315895 -0.0038144123 -0.04502127 -0.057117254
0.08873194 0.031386912 0.03210004 -0.039336085 0.07621983 0.02580796 0.03695307 -0.07927758
0.03478907 0.053272825 0.039688997 0.036636043 -0.07539859 -0.01492882 -0.07718138 0.04252365
0.05897871 -0.03148805 -0.010284178 0.025350668 -0.036816865 0.02286056 0.06347085 0.019713983
-0.050065417 0.090333484 -0.0036393323 -0.012506181 0.0121099455 0.04276779 -0.06309057 -0.020167148
0.016721271 0.0008917571 -0.09156927 -0.05917885 -0.061787244 -0.05117879 -0.037249964 0.054112002
-0.044624265 -0.0043974356 -0.0005946799 0.004188836 0.050292574 0.04923115 -0.017520163 0.0011751604
-0.035585914 0.049538635 0.11253233 -0.08043203 -0.06632637 0.048771296 -0.011649264 0.09094621
-0.08966934 0.08779169 -0.10284257 0.019916987 0.0849209 -0.064202145 -0.04968531 0.07928454
-0.025040632 -0.04670221 0.015331093 0.07406152 0.067253806 -0.01999953 -0.05551861 0.05864757
0.11143711 -0.062511384 -0.010510065 0.04156572 -0.028494434 -0.056130715 0.028521383 0.025818432
-0.007873227 -0.025351368 -0.09269005 -0.0010787838 0.047251478 -0.07953539 0.088037014 0.0625037
0.04791973 -0.060098894 -0.10308973 0.06849965 -0.13882191 -0.011783437 0.052953724 -0.10961073
0.026506452 0.01480222 -0.10829071 0.0732212 -0.027010264 -0.032464642 -0.03733646 0.104049824
0.001633849 -0.030441875 0.004972698 -0.015510717 -0.07128238 -0.056164037 0.027138265 -0.015846988
0.013174532 -0.08113958 -0.12770008 -0.044134427 0.020704439 0.055449944 0.036994006 0.10851828
0.06662789 -0.026531164 0.02406436 0.0006628229 0.09562042 -0.03579565 0.05818443 -0.026933616
0.098804295 -0.07209558 0.072033174 -0.13489063 -0.075236335 0.060379043 -0.03311851 -0.13823958
0.06247775 0.03965723 -0.1592857 -0.067198895 0.0045071687 0.003593913 0.011782509 0.100241415
-0.009512426 -0.11786284 0.009158621 -0.038031198 -0.019047426 0.09585859 0.10029549 0.023424488
0.019824538 -0.11415436 -0.057357065 0.00081856444 0.048173245 0.032141075 -0.021938931 -0.075921886
-0.03176916 -0.10014494 0.011749264 0.06416326 0.09488092 -0.09357122 0.0046785194 0.07572188
0.10715858 0.12508883 -0.079026744 -0.04581388 0.02552045 -0.02536351 -0.029015092 -0.03842498
-0.2400253 0.015603067 -0.056306344 -0.01508284 -0.022420235 0.08310967 0.023555268 0.100691944

transformer.layers.0.linear_net.0.bias f4 [256]
00000000: f192 8fbd 9ed3 19bd ec5b 9c3d 1db6 2a3d
00000010: c983 a5bc a45b 46bd ded9 133d d482 85bd
00000020: 3eb4 9abc e74f 9ebd 48bd 3cbd 1b2b 94bc
00000030: 7592 463d 95b8 a13d 4ac7 4dbd 7e61 883d
00000040: a5e2 0ebd 3adb 2d3d 5f1d 10bd d9ea b6bd
00000050: 5285 a0bd 70b3 f03c 38f4 49bc dd09 bdbd
00000060: 45a0 90bc 0d8b e9bb 0d60 b5bc 7be6 b9bd
00000070: c4b5 573c e817 baba 328f 15bd a463 b53c
00000080: 3b34 80bd 6ac7 8abd fb2d 903d d985 7fbc
00000090: 790c 373d fb6d b23b be49 523d 384e 95bd
000000a0: ab3b d73a 13b8 cbbc e4b0 1f3d 070a 9ebd
000000b0: 702b 46bd 95b4 263c 8e97 52bd c89c 9c3d
000000c0: 56e5 7cbc c552 a93d f11c 8a3d 04d4 5bbd
000000d0: 0090 aebc 829b 0b3c 1680 96bd fc1e 82bd
000000e0: 2075 14bd 6464 87bd ca2d 31bc 3b51 a83d
000000f0: 0a60 493d 9dde abbd ca4b f8bc 39e0 073d
00000100: 6d76 a63d 87d9 1d3c 95f0 a53d ca0d 473d
00000110: b608 963c 7d95 b0bc b1f8 04bc 5d50 bebc
00000120: 6608 ab3d 51ba 6939 baff 16bd b116 68bd
00000130: 23c5 0cbd 0f33 053d ff75 0bbc a055 033c
00000140: bfa2 13bd 8381 eabc 14db b4bd 56a1 b4bb
00000150: 6760 9fbd 9869 32bd ed5a 87bd c097 233d
00000160: 0091 9c3c 004b 2a3c b426 4ebd 255b 433d
00000170: 6523 65bd 7237 d9bc 52b0 c63b caf8 5e3c
00000180: 0917 8cbd 8411 a33d f6e4 643b 4940 713d
00000190: 394f a73d b59e 83bd a335 1e3c 2359 963b
000001a0: 9909 a9bd 3dd0 a63d 031a 933d 5fba 9b3c
000001b0: b845 b4bd c924 a4bd 4b10 893c 7cf9 123c
000001c0: ea21 9cbb dea3 27bd 08d2 9cbd 09de d4bc
000001d0: 5c6f febc ecee 98bd 2324 123d e3e6 aabb
000001e0: e021 5a3c f787 f83b 950d 8c3d fe88 9c3d
000001f0: fe42 143d df97 5a3d 5472 8a3d 9944 983d
00000200: a28b a8bd 657e 09bd d7c9 213d 63e7 84bd
00000210: 1e88 34bd 2ee4 0dbd ffff 8f3d b543 06bc
00000220: d91e 33bd 6ac8 dcbc b659 17bd c1d5 143d
00000230: d070 79bc cb1a d33a 790e 783d 3337 973c
00000240: 942f 083d 0f9e 7e3d 08b3 48bd 36bc 8e3c
00000250: bd8a 793d 6314 973d 9b08 533c 9558 873d
00000260: d392 99bd 1fcb 0fbd db98 40bd 0f77 4c3d
00000270: eae0 16bd ff39 a03d 4a6e 87bd 8f8b 80bd
00000280: 348e 593d e0ff 613d 5dbe 4bbd 6c98 8d3d
00000290: 8954 8d3d ff25 803c ba9d 31bd 2ea9 30bc
000002a0: 2bfd 473d 7320 7b3d 183c 8b3d fde5 893d
000002b0: ed53 283d 3091 223d 0396 85bd 273a b23c
000002c0: eba5 023d 0f06 193d 0657 1ebd e025 67bd
000002d0: 70c2 afbd 99e4 9ebd ef23 5e3d 1321 3e3c
000002e0: 5cdb a13d 2dd7 aebd e13a 853d 2b98 11bd
000002f0: 28b3 05bd a38e 2c3d c9ec 893d 3c41 7c3b
00000300: f8c5 5fbd be25 a2bd a8c9 7c3d def3 6b3d
00000310: d5cd 453c 4aed 9abd 9b24 8e3d 9eb0 423d
00000320: 169a 08bd 5639 6d3c 4e53 e8bc 31a5 b03d
00000330: 4d1b 073d 3517 3fbd 8c8b 453d 034a 883d
00000340: 1f86 0c3d d461 aa3d a7ee 723d d6f0 63bd
00000350: 73de a1bc 83bd 6f3c e5c4 403c e0bd 9b3d
00000360: 2a98 8c3d 134d a03c 2032 8fbd 1037 7cbd
00000370: ac3a 90bd 4ebb 54bd b3ba 4c3d d14b 98bc
00000380: 4485 163d 0e55 17bd aa2f 63bc 1100 abbd
00000390: 349d 0a3d 5ffe 3f3d 9add 983d c959 563b
000003a0: e794 cc3c 08c1 d8bc f560 513d fd95 05bd
000003b0: b7b1 5f3d 9137 4fbd 6d45 87bd 7c3d b43d
000003c0: 8b13 f6bc d02b adbd 1ce8 3dbc 2258 8a3d
000003d0: 235d 8dbd 9501 f4b9 2cea 29bd ca79 453d
000003e0: edd8 8fbd 34f8 2ebd 07a8 43bd a274 a2bd
000003f0: 5efa 9b3d 5adb 2d3d 1963 abbd e79c 98bd
-0.07010449 -0.03755533 0.0763472 0.041677583 -0.020204442 -0.04842724 0.036096446 -0.06519094
-0.018884774 -0.07730084 -0.04607895 -0.01808696 0.048479516 0.07896534 -0.050238885 0.0665922
-0.034884114 0.0424454 -0.03518426 -0.089315124 -0.07837929 0.029382437 -0.012326293 -0.09230397
-0.017654547 -0.007127172 -0.022140527 -0.09077164 0.013165895 -0.0014197798 -0.036513515 0.022142239
-0.06259962 -0.067763165 0.0704002 -0.015595877 0.04468963 0.0054452396 0.051339857 -0.0729031
0.0016420981 -0.024868047 0.038987055 -0.07716756 -0.04838127 0.01017489 -0.051414065 0.07647091
-0.015435537 0.0826774 0.067438014 -0.05366899 -0.021308899 0.008520963 -0.07348649 -0.06353566
-0.03624451 -0.06610945 -0.01081414 0.082186185 0.049163856 -0.083920695 -0.030309577 0.03317282
0.08128057 0.009634382 0.08102528 0.048597135 0.0183147 -0.021555657 -0.008115933 -0.02323168
0.08351211 0.0002229002 -0.036864974 -0.056662265 -0.03436769 0.032519396 -0.008512019 0.00801602
-0.03604388 -0.02862621 -0.08830848 -0.005512397 -0.07782059 -0.043557733 -0.066091396 0.039939642
0.01911211 0.010393858 -0.05032988 0.047694344 -0.055941958 -0.026515696 0.0060634995 0.013609121
-0.06840331 0.07962325 0.003492651 0.058899198 0.081694074 -0.06426755 0.009656343 0.0045882626
-0.08253784 0.08145187 0.07182696 0.019009767 -0.0880236 -0.08014829 0.016731402 0.0089706145
-0.004764785 -0.04092776 -0.07657248 -0.02598478 -0.03105896 -0.07467446 0.035678994 -0.005215512
0.0133137405 0.0075845676 0.06838528 0.07643317 0.0361967 0.05336749 0.067600876 0.07434959
-0.08229758 -0.033567805 0.03949913 -0.06489446 -0.044075124 -0.034641437 0.07031249 -0.008194854
-0.04373059 -0.026951034 -0.03695079 0.036336664 -0.0152246505 0.0016106007 0.060560677 0.018458938
0.0332485 0.062162455 -0.048998863 0.01742373 0.060923327 0.07376935 0.01288047 0.066086926
-0.074987076 -0.03510582 -0.047020774 0.04991823 -0.03683559 0.07823562 -0.06612833 -0.06276619
0.05311413 0.055175662 -0.04974209 0.06913838 0.069008894 0.015643118 -0.04336331 -0.010782523
0.048825424 0.061310243 0.06798571 0.0673332 0.041095663 0.039689243 -0.06522753 0.021756245
0.031896513 0.037359294 -0.03865721 -0.056432605 -0.08582008 -0.07758445 0.054233488 0.011604565
0.079031676 -0.08537135 0.06505371 -0.03554551 -0.03264156 0.042128216 0.06734616 0.003849103
-0.054632157 -0.07917355 0.061715752 0.057605617 0.012073 -0.075647905 0.06940576 0.047531717
-0.033350073 0.014479002 -0.028360035 0.08625258 0.03298502 -0.04665299 0.048228785 0.066547416
0.034307595 0.083194405 0.059309628 -0.0556496 -0.019759392 0.014632585 0.011765693 0.07604575
0.068649605 0.019568002 -0.069919825 -0.06157595 -0.07042441 -0.05193644 0.049982738 -0.01859084
0.036748186 -0.03694635 -0.0138663445 -0.08349622 0.033841327 0.046873447 0.07464142 0.0032707325
0.024973346 -0.026459232 0.051117856 -0.032613743 0.05461284 -0.0505901 -0.06605039 0.0880079
-0.030038616 -0.08455622 -0.011590984 0.06755091 -0.0690253 -0.00046540485 -0.04148309 0.04821185
-0.07023797 -0.042717174 -0.047767665 -0.07932402 0.07616113 0.042445518 -0.08368511 -0.07451802
